models/aodnet/aodnet_final.pth (torch, 11093 bytes, 10 tensors)

conv1.weight f4 [3, 3, 1, 1]
0	0x3a441e39	0.000748131
1	0xbcdf66e7	-0.027270747
2	0xbb325ff1	-0.002721783
3	0x3d8feb2c	0.07027277
4	0xbeec1788	-0.46111703
5	0x3efd5322	0.49477488
6	0x3ef7cf4c	0.48400342
7	0x3e8fff71	0.28124574
8	0x3e93f779	0.28899744

conv1.bias f4 [3]
0	0xbc313251	-0.010815219
1	0x3e8551cc	0.2603897
2	0x3ee5f437	0.44912884

conv2.weight f4 [3, 3, 3, 3]
0	0x8c9a313b	-2.3757086e-31
1	0x2676a54d	8.557242e-16
2	0x13ea1b72	5.9096968e-27
3	0x8f740552	-1.20311535e-29
4	0x2e0c2efe	3.1874052e-11
5	0x99bbc5d7	-1.9415254e-23
6	0x34cd195f	3.8202685e-07
7	0xacff55b6	-7.2570517e-12
8	0x2c4bdf09	2.8971844e-12
9	0x3df204d9	0.11817331
10	0x3e110637	0.14162527
11	0x3d8033ef	0.062599055
12	0xbc7c906b	-0.015415291
13	0xbdb3467c	-0.08753678
14	0x3dedf706	0.116193816
15	0x3dbaab4d	0.09114704
16	0xbd86b45f	-0.06577372
17	0x3df21222	0.11819865
18	0x3d57e63b	0.0527098
19	0x3e0119be	0.12607476
20	0x3d44fbee	0.04809182
21	0xbda34208	-0.07971579
22	0xbd664db8	-0.056226462
23	0x3e020e7c	0.12700838
24	0xba4255cb	-0.0007413297
25	0xbe4258fc	-0.18979257
26	0x3d2f2f0b	0.042769473
27	0x0f63566e	1.120861e-29
28	0xb1f41765	-7.1039943e-09
29	0xb349e5b1	-4.7007862e-08
30	0xb53ab228	-6.954965e-07
31	0x3136345f	2.6514255e-09
32	0xac724fa8	-3.4434487e-12
33	0x10dcdc59	8.71142e-29
34	0x3249066a	1.1701198e-08
35	0xb30aae1f	-3.228899e-08
36	0x3dc059a0	0.093920946
37	0x3e4a8ad5	0.19779523
38	0xbd1e83d4	-0.03869994
39	0x3e23805e	0.15966937
40	0xbdcfc1fe	-0.10144423
41	0xbd850b59	-0.06496305
42	0x3db15e9b	0.08660623
43	0x3e388d47	0.18022643
44	0xbe1fdf94	-0.15612632
45	0x3e313ae5	0.17307623
46	0x3cd4b6e1	0.02596611
47	0xbc9d2d1c	-0.019186549
48	0x3d97046c	0.0737389
49	0x3d0edfae	0.034881286
50	0x3da4909e	0.08035396
51	0xbd2d46ed	-0.04230397
52	0x3dda44ad	0.1065763
53	0xbcb3279e	-0.021869477
54	0x103694e9	3.6007887e-29
55	0x0fbcd117	1.861877e-29
56	0x8fd034ae	-2.0530675e-29
57	0x99a2e72e	-1.684378e-23
58	0xa6099e60	-4.774606e-16
59	0x30803ebd	9.331057e-10
60	0x0f3abf8c	9.2073986e-30
61	0x1003351b	2.5876106e-29
62	0xb49d9602	-2.9352674e-07
63	0x3da95f5f	0.08270144
64	0x3daf741b	0.08567067
65	0x3d49b203	0.04924203
66	0x3e181f42	0.14855674
67	0xbc1718b0	-0.009222195
68	0xbc4e8786	-0.0126055535
69	0x3e35f737	0.17770086
70	0xbc0dbb27	-0.008650578
71	0x3e0f85df	0.14015912
72	0xbe366079	-0.17810239
73	0x3e4ad916	0.19809374
74	0xbe0a9a65	-0.1353546
75	0xbe157e7a	-0.14599028
76	0xbdfe0656	-0.12403552
77	0x3c22130b	0.0098922355
78	0x3d433a90	0.04766327
79	0xbddd9c23	-0.10820796
80	0x3e01fedd	0.12694879

conv2.bias f4 [3]
0	0xbe341e59	-0.17589702
1	0x3da1ce40	0.07900667
2	0x3e469d23	0.1939588

conv3.weight f4 [3, 6, 5, 5]
0	0x0f29b4f9	8.3671974e-30
1	0x900b4972	-2.7469497e-29
2	0x8e0148cd	-1.593553e-30
3	0x0f960de7	1.4796497e-29
4	0x0ed88bae	5.3382618e-30
5	0x92b2ab4c	-1.1275607e-27
6	0x8f808f5a	-1.2676991e-29
7	0x0d598e6e	6.703973e-31
8	0x8df79607	-1.5258668e-30
9	0x0deffaed	1.478992e-30
10	0x0e8a6ab5	3.412238e-30
11	0x0eee27c1	5.870981e-30
12	0x0f3c7208	9.291077e-30
13	0x8f8554a5	-1.3147416e-29
14	0x0ea3b758	4.0359156e-30
15	0x0e3b7750	2.3106976e-30
16	0x90955063	-5.889399e-29
17	0x900d4fa2	-2.7868694e-29
18	0x0f580378	1.065029e-29
19	0x8eda497f	-5.3811923e-30
20	0x0f25de99	8.177999e-30
21	0x11296914	1.3364129e-28
22	0x90e0ad57	-8.8619494e-29
23	0x91c9e8ce	-3.1855685e-28
24	0x0fabf0d0	1.695466e-29
25	0x3d81748f	0.0632106
26	0x3cf74d29	0.03018816
27	0xbc7be906	-0.015375381
28	0xbc104fe5	-0.008808111
29	0xbd6e241e	-0.058139913
30	0x3d98a726	0.07453756
31	0x3d18c71d	0.037299264
32	0xbbf2773e	-0.0073994687
33	0xbd5ca3e4	-0.053867236
34	0x3ccba54c	0.024859093
35	0x3d93a562	0.07209279
36	0x3d8ae5fe	0.06782149
37	0xbbaabb27	-0.0052102986
38	0x3db491e6	0.088168904
39	0xbd730f07	-0.059340503
40	0x3d60e91f	0.05490982
41	0xbcc15ce6	-0.023603868
42	0xbc9474b0	-0.018122047
43	0xbb59fa82	-0.0033260887
44	0xbd524d83	-0.051343452
45	0x3c62c5d0	0.0138411075
46	0xbd26d835	-0.040733535
47	0xbd67c029	-0.056579743
48	0xbc8346fe	-0.016025063
49	0xbbaf29d3	-0.005345562
50	0x3d307ade	0.043085925
51	0xbda27bae	-0.07933746
52	0xbd06dbcc	-0.03292446
53	0xbc3101f9	-0.010803693
54	0xbcf6f7f0	-0.030147523
55	0x3ce11bdf	0.02747911
56	0x3d9f08fc	0.077653855
57	0x3d31e8c7	0.043434884
58	0xbd0e5b4d	-0.03475504
59	0x3d001a38	0.031275004
60	0xbd2547da	-0.040351726
61	0x3ca07247	0.019585742
62	0x3d9e1e25	0.07720593
63	0x3ba5473e	0.005043893
64	0x3d7e9078	0.062149495
65	0x3d43b4b1	0.047779743
66	0x3c6ce537	0.014458946
67	0x3b06167f	0.0020460186
68	0x3d92fff6	0.07177727
69	0x3d7d446b	0.061832827
70	0xbd8b2467	-0.067940526
71	0xbd1d2198	-0.038362116
72	0x3d39ee5a	0.045393325
73	0xbd812b7e	-0.063071236
74	0xbd0a1f1b	-0.03372107
75	0xbd88c091	-0.06677354
76	0xbb657384	-0.003501148
77	0xbca75319	-0.020425366
78	0x3d73c33c	0.059512362
79	0xbcd29cb6	-0.025709491
80	0x3d98f6ec	0.074689716
81	0xbd22fda5	-0.039792676
82	0x3d82ff83	0.06396391
83	0x3d029524	0.031880513
84	0xbc8d0455	-0.01721398
85	0x3d6b2175	0.057404954
86	0xbd3db2d6	-0.04631313
87	0xbd583efe	-0.05279445
88	0xbd801d85	-0.062556304
89	0xbd8a2aea	-0.067464665
90	0x3af03d0d	0.0018328741
91	0xbced3dad	-0.028960073
92	0xbcb0803c	-0.021545522
93	0x3d972bd7	0.07381409
94	0x3cee98a1	0.029125514
95	0x3d87bd09	0.066278525
96	0xbd83e618	-0.06440371
97	0xbcbf293e	-0.023335095
98	0x3d97b104	0.0740681
99	0xbd8375f6	-0.06418984
100	0xbd5a816e	-0.05334609
101	0x3d953cd4	0.07286993
102	0x3d67c770	0.056586683
103	0x3d534f1f	0.051589128
104	0x3d0e5ec9	0.034758363
105	0x3d313276	0.043261014
106	0x3d14817c	0.0362563
107	0xbd593fde	-0.053039424
108	0x3d178c5d	0.036999095
109	0x3d48b8e3	0.049004447
110	0xbd208422	-0.03918851
111	0x3cbe9182	0.023262743
112	0xbbcdfeef	-0.006286494
113	0xbd134caf	-0.035961803
114	0x3d64c9d0	0.055856526
115	0xbda38312	-0.07983984
116	0x3ceb8870	0.028751582
117	0x3d0cd60b	0.034383815
118	0x3d206672	0.0391602
119	0xbd033700	-0.032034874
120	0xbcfbc3cb	-0.03073301
121	0x3d95a282	0.073063865
122	0xbd371740	-0.044699907
123	0x3d979a45	0.074024715
124	0x3d815fa9	0.06317074
125	0x3d1eb0c8	0.03874281
126	0xbd684297	-0.05670413
127	0x3c0a7a7d	0.008452055
128	0xbd6755ab	-0.056478184
129	0xbd108446	-0.035282396
130	0x3b853c47	0.0040660235
131	0xbb3aacec	-0.0028484417
132	0x3de4edd8	0.111781776
133	0x3c85e3ca	0.01634397
134	0x3da511dc	0.08060047
135	0x3d8534fa	0.06504245
136	0x3d5716c3	0.05251194
137	0x3dc62f34	0.09676972
138	0x3d78a1e5	0.06070127
139	0xbc3fca9e	-0.011706023
140	0x3a5695f3	0.00081857963
141	0xbcab7b23	-0.02093274
142	0x3d9cd296	0.076573536
143	0x3c6ddf3d	0.014518556
144	0x3ca5476c	0.020175658
145	0x3bdea2b5	0.0067942985
146	0xbcf88e21	-0.03034121
147	0xbcb36a47	-0.021901263
148	0xbb6f85be	-0.0036548222
149	0xbd5d611f	-0.0540477
150	0x918b3d57	-2.1968137e-28
151	0x8f8cbecd	-1.387856e-29
152	0x10c63605	7.818046e-29
153	0x0e912723	3.5782947e-30
154	0x0f18e25c	7.537774e-30
155	0x0d1e3c8e	4.87604e-31
156	0x136650d4	2.9069933e-27
157	0x9b03ce6b	-1.0902763e-22
158	0x10650304	4.516461e-29
159	0x8e0bcf45	-1.723287e-30
160	0x0e9e5b7c	3.9038103e-30
161	0x170e55d0	4.5990985e-25
162	0x904c45d2	-4.0285694e-29
163	0x0f815818	1.2754315e-29
164	0x8dcc0ea9	-1.2576e-30
165	0x0f0257d1	6.426408e-30
166	0x0e55f159	2.6370482e-30
167	0x0e5896ae	2.6696605e-30
168	0x8d563117	-6.600293e-31
169	0x113c60aa	1.4860372e-28
170	0x8f8c7075	-1.3848383e-29
171	0x8ec10619	-4.7584045e-30
172	0x99027aed	-6.745667e-24
173	0x8f8f24db	-1.4115085e-29
174	0x91d06f7e	-3.2885326e-28
175	0xbd00dc3b	-0.03146003
176	0xbc5f029f	-0.013611465
177	0xbd716053	-0.058929753
178	0xbd1b1fe7	-0.03787222
179	0xbd8e5622	-0.06950022
180	0x3b21fe16	0.0024718097
181	0xbd92b9f2	-0.071643725
182	0x3d64d3b1	0.055865947
183	0x3c8f3ee5	0.017486045
184	0xbca4643f	-0.020067332
185	0x3d912967	0.07087975
186	0x3cb678d8	0.02227442
187	0x3cc1193e	0.023571607
188	0x3d4e32e9	0.05034152
189	0xba9cbbb7	-0.0011957799
190	0x3d1b2c6f	0.037884172
191	0x3d89db10	0.06731236
192	0x3d038d17	0.032116976
193	0x3d9dca3b	0.07704588
194	0x3d06a49c	0.032871827
195	0xbbb65f88	-0.0055655874
196	0x3cdfa37a	0.027299631
197	0x3c81e980	0.015858412
198	0x3cd49b34	0.025952913
199	0xbc410d1c	-0.011782911
200	0x3ce1f74b	0.027583739
201	0x3d7d79ab	0.06188361
202	0xbd5a4fd8	-0.0532988
203	0xbd51893c	-0.051156268
204	0xbdaf5983	-0.08561995
205	0xbb9bea82	-0.00475818
206	0xbb3a8926	-0.0028463094
207	0x3c56cfb6	0.013111046
208	0x3d7c57b4	0.061607078
209	0xbd9ffc61	-0.07811809
210	0xbca88582	-0.020571474
211	0xbda5fe9a	-0.08105202
212	0xbcb22056	-0.021743935
213	0x3d9123c3	0.07086899
214	0x3d3204d9	0.043461654
215	0x3d11ce38	0.035597056
216	0x3d91540d	0.070961095
217	0xbc5126c9	-0.012765595
218	0x3d5cef5e	0.053939216
219	0xbc5eeef2	-0.013606774
220	0xbda105b8	-0.07862419
221	0x3c009ed3	0.007850367
222	0x3d328400	0.043582916
223	0x3d02c987	0.031930473
224	0x3d800c74	0.06252375
225	0xbd1b5fdd	-0.03793322
226	0x3c870024	0.01647956
227	0x3d34b779	0.044120286
228	0x3d29c30a	0.04144577
229	0xbd95373b	-0.07285925
230	0x3d6ae5a7	0.05734792
231	0xbd90791e	-0.07054351
232	0xbd9ba9cd	-0.07600746
233	0xbc7d59be	-0.015463291
234	0x3d390d5a	0.04517875
235	0xbcf4e627	-0.029894901
236	0xbc97cd3c	-0.01853048
237	0x3d3af2b4	0.045641616
238	0x3d151f7d	0.036406983
239	0xbcb86660	-0.022509754
240	0x3d7aac8f	0.06119972
241	0x3d452bac	0.048137352
242	0xbd76c1eb	-0.06024353
243	0xbd161b0c	-0.036646888
244	0x3d35920a	0.044328727
245	0x3d78e961	0.060769442
246	0xbcfe963e	-0.0310775
247	0xbccbfe32	-0.024901483
248	0xbc2385cb	-0.009980629
249	0xbc2622c1	-0.010140122
250	0xbd7ab391	-0.061206404
251	0x3d71f9e3	0.0590762
252	0xbd3cf8a4	-0.04613556
253	0x3aea1b99	0.0017861008
254	0xbd818854	-0.06324831
255	0xbbe92d07	-0.0071159634

conv3.bias f4 [3]
0	0x3c622d43	0.013804737
1	0xb9793e87	-0.00023769784
2	0x3d826e48	0.06368691

conv4.weight f4 [3, 6, 7, 7]
0	0x3d72f1b0	0.059312522
1	0x3d8931dc	0.06698963
2	0x3c785834	0.015157748
3	0x3cb58492	0.022157941
4	0x3d982c9b	0.07430383
5	0x3d30ff0c	0.04321198
6	0x3d5dfb7a	0.054194905
7	0xbb99a1de	-0.0046884855
8	0x3d650cf1	0.055920545
9	0x3d8b3fb0	0.06799257
10	0xbc229f2c	-0.009925645
11	0x3d25b0d9	0.04045186
12	0x3d5c9cc0	0.053860426
13	0x3dbd3aea	0.092397526
14	0x3d4d9f97	0.050201025
15	0x3ca8998d	0.020581031
16	0xbc3c0a62	-0.011477085
17	0xbc8752f0	-0.01651904
18	0x3c930e2b	0.017951092
19	0x3c938123	0.018005913
20	0x3caa9a31	0.020825477
21	0x3c9f4495	0.019441882
22	0xbc9cfdff	-0.019164084
23	0xbcc3304f	-0.023826746
24	0xbcd8eb8a	-0.026479501
25	0x3cffdf6a	0.031234462
26	0x3ccedb86	0.025251161
27	0x3d2882a3	0.04114021
28	0x3c40d1ff	0.011768817
29	0xbd1396ba	-0.036032416
30	0xbccdf8d0	-0.025143057
31	0xba78c385	-0.0009489584
32	0x3d9a1749	0.075239725
33	0x3c94b40e	0.018152263
34	0x3c4ccf15	0.012500544
35	0xbcf17009	-0.029472368
36	0x3d6315a8	0.055440575
37	0xbc809f00	-0.015700817
38	0x3d31e0de	0.04342734
39	0xbc8dc51a	-0.0173059
40	0xbd029c04	-0.03188707
41	0x3d67c302	0.05658246
42	0xbc11ed15	-0.008906622
43	0x3bd4dd8c	0.006496137
44	0x3cee9914	0.029125728
45	0x3c99bcdb	0.018766811
46	0x3cfa4df5	0.030554751
47	0x3d21f988	0.039544612
48	0xbbae5c5e	-0.0053210696
49	0xbb2b1129	-0.0026102758
50	0x3d552a06	0.05204203
51	0x3d803cf5	0.06261627
52	0x3d3a95af	0.045552906
53	0x3d683cd9	0.056698654
54	0xbbe65552	-0.007029214
55	0x3bd53db4	0.0065075997
56	0x3d0f8b1b	0.03504477
57	0xbabde39d	-0.001448739
58	0x3d367d50	0.0445531
59	0x3d219482	0.03944827
60	0xbcfb3c4b	-0.030668398
61	0x3d92eed8	0.07174462
62	0x3cebaedc	0.028769903
63	0x3d0f7530	0.035023868
64	0x3cd53962	0.026028339
65	0x3c14f707	0.009092099
66	0x3d0e5040	0.0347445
67	0xbcc0fa9c	-0.023557
68	0x3d4747f0	0.04865259
69	0xb83ecb26	-4.5488727e-05
70	0x3c3b43c5	0.011429732
71	0x3d2aa7be	0.041663878
72	0xba238de8	-0.0006239102
73	0x3d4e9fac	0.050445244
74	0x3d8e62a6	0.069524094
75	0xbccec569	-0.025240617
76	0xbc9793a7	-0.018503023
77	0x3b470e78	0.0030373614
78	0xbcd6117b	-0.026131382
79	0x3bd5d3c1	0.006525487
80	0xbc85ee03	-0.016348844
81	0x3d990f03	0.074735664
82	0x3d48d24b	0.049028676
83	0x3d7c4b98	0.06159553
84	0x3c89d41d	0.016824776
85	0xbd4b0c75	-0.049572427
86	0x3d090a82	0.033457287
87	0xbd0d1461	-0.034443263
88	0x3d077764	0.033072844
89	0xbc2b626e	-0.010460479
90	0xbcec2a33	-0.028828716
91	0xbc21d277	-0.009876839
92	0xbb3e68b8	-0.0029054116
93	0xbceb4703	-0.028720384
94	0xbcfbcf36	-0.030738454
95	0xbcc5735d	-0.024102861
96	0x3d8ed992	0.06975092
97	0x3caabbdf	0.020841537
98	0xbd72d437	-0.059284415
99	0xbcff83fc	-0.031190865
100	0x3d94e365	0.072699346
101	0x3d07b69e	0.03313314
102	0x3d0f6661	0.035009746
103	0xbd2cbab6	-0.04217025
104	0xbd436e39	-0.04771254
105	0xbdb46f04	-0.08810237
106	0xbd584a44	-0.0528052
107	0x3d9700be	0.073731884
108	0x3c526c97	0.012843273
109	0x3d8f7961	0.07005573
110	0xbd15be89	-0.03655866
111	0xbd80dac4	-0.06291726
112	0xbd19a4f3	-0.037510823
113	0xbd0c1a51	-0.034204785
114	0x3d98066f	0.07423102
115	0x3d1cde3c	0.038297877
116	0x3d06146d	0.032734323
117	0x3d8aa4d3	0.06769719
118	0x3d8b8dc4	0.06814149
119	0xbd81defb	-0.06341358
120	0x3d87d2ae	0.06631981
121	0x3d515480	0.051105976
122	0x3debed01	0.11519814
123	0x3cb3b55f	0.02193707
124	0x3c59fbcc	0.013304662
125	0xbc88e327	-0.016709877
126	0xbc0fd4cd	-0.008778763
127	0x3cd799c1	0.026318433
128	0x3d87137a	0.06595512
129	0x3d685340	0.05672002
130	0x3d8113a4	0.06302574
131	0x3d12fdd7	0.03588661
132	0xbd3663b6	-0.044528686
133	0xbd7d5f46	-0.061858438
134	0xbd22788b	-0.03966574
135	0x3d532446	0.051548265
136	0x3d73c9eb	0.059518736
137	0x3d988e47	0.07449012
138	0xba9116a7	-0.0011069373
139	0x3d34601f	0.04403698
140	0xbbb4ba3c	-0.005515365
141	0xbd922d0b	-0.071374975
142	0x3d97510c	0.07388505
143	0x3d262f93	0.040572714
144	0xbc553079	-0.013012045
145	0xbd558f37	-0.052138533
146	0x3cf5a671	0.029986592
147	0xbb905ec2	-0.0044058273
148	0x3c27d12d	0.0102427425
149	0x3c26e80e	0.010187162
150	0x3d6620a2	0.056183465
151	0x3cf18285	0.029481182
152	0x3d5bbc1e	0.0536462
153	0x3cc3eb81	0.023916008
154	0xbc090e7d	-0.008365271
155	0xbd50f07e	-0.0510106
156	0xbd17e399	-0.03708229
157	0xbd1297f0	-0.03578943
158	0xbbe62f46	-0.0070246784
159	0x3d5b9b61	0.053614978
160	0x3d5de7d5	0.05417617
161	0xbabd02ef	-0.001442043
162	0xbc18a356	-0.009316286
163	0xbc8cfbed	-0.017209971
164	0x3d6291c4	0.055314794
165	0x3d8dfced	0.069330074
166	0xbd2fc532	-0.04291267
167	0x3cad65bf	0.02116668
168	0xbd123d23	-0.035702836
169	0x3d4f5e26	0.050626896
170	0x3bc31697	0.0059536207
171	0x3d0afb27	0.033930924
172	0x3b8839a9	0.0041572643
173	0xbbae1e35	-0.0053136596
174	0x3d28a063	0.04116858
175	0xbd0670d1	-0.032822434
176	0x3c8f69fc	0.017506592
177	0xbc894129	-0.016754704
178	0x3d649902	0.055809982
179	0x3d359ca9	0.044338856
180	0xbb22fa5e	-0.0024868469
181	0xbd44eea6	-0.048079155
182	0x3d57a6ee	0.05264943
183	0x3d6e9b70	0.058253706
184	0x3cce825c	0.025208645
185	0x3c539835	0.012914707
186	0xbd1f1871	-0.03884167
187	0x3d434bd7	0.04767975
188	0xbd119075	-0.035538156
189	0x3cba33eb	0.022729835
190	0xbd08cee3	-0.033400428
191	0xbd3cb556	-0.046071373
192	0x3ce9a524	0.028521128
193	0xbb7c2240	-0.0038472563
194	0x3b4d6a11	0.0031343738
195	0xbab0ca73	-0.0013488069
196	0x3cb0a9db	0.021565368
197	0x3ca3615c	0.019943886
198	0x3caeef27	0.021354271
199	0xbc632fb2	-0.013866352
200	0x3d17d97f	0.037072655
201	0xbbb8a23c	-0.005634574
202	0x3d0ad2ed	0.03389256
203	0x3d246368	0.040133864
204	0xbc3648f3	-0.011125791
205	0x3b9e9082	0.004839004
206	0x3d8710a4	0.06594971
207	0x3b05cb4b	0.0020415362
208	0x3d0f9dcd	0.0350626
209	0xbc84771d	-0.016170079
210	0xbd2212a0	-0.039568543
211	0x3d5cbea8	0.05389276
212	0xbc941dd8	-0.018080637
213	0x3d99976c	0.074995846
214	0x3cd05800	0.025432587
215	0x3d26d4d5	0.040730316
216	0x3ba62013	0.0050697415
217	0x3d16c07e	0.03680467
218	0x3d84b78d	0.06480322
219	0xbb71d6da	-0.0036901743
220	0x3d69c559	0.05707297
221	0xbc0bb1a4	-0.00852624
222	0x3d9f2ec4	0.07772592
223	0xbd055c8a	-0.032558955
224	0x3d657738	0.0560219
225	0x3cc2b52f	0.023768036
226	0x3d3b195f	0.045678493
227	0x3be5ce3e	0.0070131114
228	0x3d9cfd45	0.07665495
229	0x3c63ba65	0.01389942
230	0xbbb5eae8	-0.0055516846
231	0x3d63589e	0.055504434
232	0xbcf1ce28	-0.029517248
233	0x3d529372	0.051410146
234	0x3c0abcb8	0.008467846
235	0x3d87ca3d	0.06630371
236	0x3d408789	0.047004256
237	0xbb1d824b	-0.002403396
238	0x3c819e4c	0.015822552
239	0xbd3b4295	-0.045717794
240	0x3cb8f41a	0.022577334
241	0x3d8817b3	0.06645145
242	0x3bc6a8ae	0.0060625887
243	0x3ca71e63	0.020400232
244	0x3d26571f	0.04061043
245	0xbc412674	-0.011788953
246	0x3d355a28	0.044275433
247	0x3d66ca49	0.056345258
248	0x3cae843a	0.021303285
249	0xbcf2e74b	-0.029651305
250	0xbb93f351	-0.0045150896
251	0x3d476509	0.04868034
252	0x3d169bfa	0.036769845
253	0x3d36656a	0.04453031
254	0xbcd7a181	-0.026322128
255	0x3c22e1c5	0.009941523

conv4.bias f4 [3]
0	0x3bce1344	0.0062889177
1	0x3d402dbc	0.046918616
2	0xbd03ffca	-0.03222636

conv5.weight f4 [3, 12, 3, 3]
0	0x1f439d3d	4.142292e-20
1	0x0fb5c7ac	1.7924889e-29
2	0x0f75ab6f	1.21124495e-29
3	0x8d41d52e	-5.9729322e-31
4	0x912b3f8e	-1.3509106e-28
5	0x9c7224f2	-8.0118834e-22
6	0x0e85022b	3.278912e-30
7	0x8fa6cfa4	-1.6448844e-29
8	0x0d31c062	5.477391e-31
9	0xbb4d3d88	-0.0031317193
10	0x3d96534f	0.073401086
11	0x3d1e17ab	0.03859679
12	0x3e053b11	0.13010813
13	0x3d84b85c	0.06480476
14	0xbc1193c5	-0.008885329
15	0xbd5a7b8f	-0.05334049
16	0x3b4eab70	0.003153529
17	0xbd43698f	-0.04770809
18	0x3da130cf	0.078706376
19	0x3e02b2b3	0.12763481
20	0xbd1c6ad6	-0.038187824
21	0x3d126a69	0.035746012
22	0xbcc05f80	-0.023483038
23	0xbd354198	-0.04425201
24	0xbd938882	-0.07203771
25	0x3d4efc26	0.050533436
26	0x3d46eb10	0.048564017
27	0x3db63160	0.08896136
28	0x3d9a51ef	0.07535159
29	0x3d794c9c	0.060864076
30	0xbd9953f6	-0.074867174
31	0xbcd55d6f	-0.02604553
32	0x3de25a89	0.110524245
33	0x3cb49c8c	0.022047304
34	0xbd938773	-0.07203569
35	0x3d8d40a4	0.06897095
36	0x3d8a14dc	0.0674226
37	0x3d0a63f7	0.03378674
38	0xbd22ffa6	-0.039794587
39	0x3d657264	0.056017295
40	0xbd529ab2	-0.05141706
41	0x3cfa17db	0.030528953
42	0x3d9684fa	0.07349582
43	0x3cba92fc	0.022775166
44	0x3d9d5eaf	0.07684075
45	0x3bffb323	0.007803337
46	0x3e2ae918	0.1669048
47	0x3c55182e	0.013006253
48	0x3da29bc5	0.07939867
49	0x3e3df8ba	0.18551913
50	0x3ddcb3cc	0.10776481
51	0x3dafebfa	0.08589931
52	0x3dd36d0f	0.10323536
53	0xbb1d9bfc	-0.0024049273
54	0x3c9fb11a	0.019493628
55	0x3d592f02	0.053023346
56	0xbda1536e	-0.07877241
57	0x3d218332	0.03943176
58	0x3d84a898	0.06477469
59	0x3cf0736f	0.029351918
60	0x3d73ca0e	0.059518866
61	0x3ca18261	0.01971549
62	0x3d8a4c29	0.06752808
63	0xbb3a6275	-0.0028440033
64	0xbda210cf	-0.07913362
65	0xbc4b808d	-0.012420786
66	0x3decee59	0.11568899
67	0x3cc311f9	0.023812281
68	0x3c70d85d	0.0147000225
69	0x3d553e07	0.052061107
70	0xbcde2c1c	-0.027120642
71	0x3db98235	0.09058038
72	0xbd946254	-0.07245317
73	0x3d180320	0.037112355
74	0xbc88ea8b	-0.016713401
75	0x3cd884a1	0.02643043
76	0x3bbe6946	0.0058108894
77	0x3cbc5e06	0.022994053
78	0x3c0bf3ce	0.008542014
79	0x3dbe8585	0.093028106
80	0x3d7654e2	0.060139544
81	0x3d26c679	0.040716622
82	0xbd8d4062	-0.06897046
83	0x3d453c0f	0.04815298
84	0x3ca3077d	0.019901032
85	0x3d28555a	0.041097023
86	0x3dcd9aee	0.10039316
87	0x3ce3adb7	0.027792795
88	0xbd0bddfb	-0.034147244
89	0x3daa7b8e	0.083243474
90	0xbd1d4edd	-0.038405288
91	0x3cfa5754	0.03055922
92	0xbd33fbcb	-0.0439413
93	0x3d978e03	0.074001335
94	0x3dc5a0a1	0.09649778
95	0x3cc89391	0.024484428
96	0xbdb7ee37	-0.08980983
97	0x3dbd9700	0.092573166
98	0x3dbb6426	0.09149961
99	0xbd79c17c	-0.060975537
100	0x3ddc2131	0.10748518
101	0x3d03fa0b	0.03222088
102	0x3c6e6d66	0.01455245
103	0xbd7a61e2	-0.061128505
104	0xbb4a5749	-0.003087478
105	0xbb6fa81e	-0.0036568712
106	0xbd94ce92	-0.07265963
107	0xbd602400	-0.054721832
108	0x8e4908c0	-2.4779376e-30
109	0x0f345197	8.890399e-30
110	0x103594fa	3.5810723e-29
111	0x91ad4f3a	-2.7343414e-28
112	0x1153e159	1.6714406e-28
113	0x1b2d3941	1.4328724e-22
114	0x90308bb1	-3.4817494e-29
115	0x91c7cf84	-3.1524555e-28
116	0x0f722712	1.1939046e-29
117	0x3d5d8e3a	0.054090716
118	0x3df6b177	0.120455675
119	0xbd5923d2	-0.053012677
120	0xbcf69fa5	-0.030105421
121	0x3e0dc8a7	0.13846074
122	0x3c84236c	0.016130172
123	0x3d84ae5b	0.06478568
124	0x3da907e4	0.08253458
125	0xbce0acb4	-0.027426101
126	0xbd6c9884	-0.057762638
127	0x3d3b4b87	0.045726325
128	0x3cabe0f6	0.020981293
129	0x3cfbf54c	0.030756615
130	0x3d9a1ad6	0.0752465
131	0x3c1272cb	0.008938502
132	0xbd21d978	-0.039514035
133	0x3ded8b0d	0.115987875
134	0x3b66ba29	0.0035206175
135	0xbc3236f6	-0.0108773615
136	0x3c2a21a9	0.010384002
137	0x3dd49d5b	0.10381576
138	0x3d902401	0.07038117
139	0xbd5029fc	-0.05082129
140	0x3d1579fb	0.036493283
141	0xbd9e487b	-0.07728668
142	0xbd82b281	-0.06381703
143	0x3dcd666c	0.10029301
144	0x3daaba6a	0.08336337
145	0xbc4eef3f	-0.012630283
146	0xbc8070fa	-0.015678871
147	0x3dde7897	0.108628444
148	0x3ae72dcb	0.0017637549
149	0xbb1c0834	-0.00238086
150	0x3dac0cd7	0.084008865
151	0xbcf8b718	-0.030360743
152	0x3d9361d5	0.07196394
153	0x3dc77abf	0.09740209
154	0x3e19fa4e	0.1503689
155	0x3d79aa55	0.060953457
156	0x3c204ee7	0.009784437
157	0x3e046483	0.12928967
158	0x3e3f9dbb	0.18712513
159	0x3cb79392	0.022409234
160	0x3d69e6a5	0.057104725
161	0x3d3b3149	0.0457013
162	0x3c61455e	0.013749449
163	0xbcf01ab9	-0.029309617
164	0xbd0626bf	-0.032751795
165	0x3dc5cc75	0.09658138
166	0xbd8e6741	-0.06953288
167	0x3af82fce	0.0018935145
168	0x3ba56596	0.0050475104
169	0x3c0998db	0.00839826
170	0x3dabd8cc	0.0839096
171	0xbd9b579a	-0.07585068
172	0x3cd4fd17	0.025999589
173	0xbca7522d	-0.020424927
174	0x3d368248	0.04455784
175	0x3d6b1b29	0.05739895
176	0x3d463e60	0.04839933
177	0xbb83669c	-0.0040100347
178	0xbd60dcc5	-0.054898042
179	0xbca048a0	-0.01956588
180	0x3d3bbc42	0.045833834
181	0xbd7b805f	-0.06140172
182	0x3d71b706	0.059012435
183	0x3d5d63c4	0.054050222
184	0xbd40bf6f	-0.047057565
185	0x3bd71daa	0.0065648155
186	0x3cf3631d	0.029710347
187	0x3da30e89	0.07961757
188	0x3d8fde2a	0.07024796
189	0x3d3a7709	0.045523677
190	0x3b4b92be	0.0031062807
191	0x3c212b73	0.009837019
192	0x3db722b5	0.08942167
193	0x3d536d05	0.05161764
194	0xbd4881bd	-0.048951853
195	0x3cd63918	0.026150271
196	0x3d3b4f27	0.045729782
197	0x3d157757	0.036490764
198	0x3dbe0b0f	0.09279453
199	0xbcd0fe85	-0.02551199
200	0x3d9973a7	0.07492762
201	0x380e9a14	3.3998935e-05
202	0x3ccf1bfd	0.0252819
203	0xbd8cdd33	-0.06878128
204	0x3c32764a	0.01089246
205	0xbd925916	-0.07145898
206	0x3d5b0304	0.053469673
207	0x3d94aa78	0.07259077
208	0x3d3b602d	0.045746017
209	0x3cc4ca78	0.024022326
210	0x3d07b08c	0.033127353
211	0xbd94884c	-0.07252559
212	0x3d923e84	0.0714083
213	0x3cb0d23e	0.021584626
214	0x3d24ce17	0.040235605
215	0xbd1227ac	-0.035682365
216	0x1a8cbd70	5.8208696e-23
217	0x1021c1ce	3.1900953e-29
218	0x94510c14	-1.05541855e-26
219	0x1185299f	2.100935e-28
220	0x10ad63a0	6.8389965e-29
221	0x92aa62dc	-1.0752879e-27
222	0x0ac9a695	1.9418257e-32
223	0x1a00a8d6	2.6606164e-23
224	0x173585c0	5.865307e-25
225	0xbc81be52	-0.015837822
226	0xbcaa19ae	-0.020764198
227	0xbcdfa01e	-0.02729803
228	0x3d71387b	0.058891755
229	0x3caa53f3	0.020791983
230	0x3dce4bad	0.10073028
231	0x3de41b38	0.11138004
232	0xbd146c7a	-0.036236264
233	0x3c2328c1	0.009958447
234	0xbd459bc6	-0.04824426
235	0xbd6a55cc	-0.05721073
236	0x3dabfc5f	0.08397745
237	0x3d6ac403	0.057315838
238	0x3d7c7cc1	0.061642412
239	0x3c3a3ac7	0.011366553
240	0x3db95d31	0.09050978
241	0x3de86872	0.11348046
242	0xbd7db996	-0.061944567
243	0xbd7dfe02	-0.06200982
244	0x3da8b34c	0.08237323
245	0x3d7be58e	0.061498217
246	0x3c175ea0	0.009238869
247	0x3d3a2374	0.045443967
248	0x3d9f0da0	0.07766271
249	0xbd3aacd0	-0.045574963
250	0x3ca12fa9	0.019676046
251	0x3d963137	0.07333606
252	0x3db5b901	0.08873177
253	0xbc6db5ac	-0.014508646
254	0x3cfe1650	0.031016499
255	0x3df36ba2	0.11885764

conv5.bias f4 [3]
0	0xbb2ff94e	-0.0026851478
1	0x3d6bd7ce	0.057578854
2	0xbcc8046c	-0.024416171
