models/aodnet/aodnet_best.pth (torch, 11077 bytes, 10 tensors)

conv1.weight f4 [3, 3, 1, 1]
000000 79 f3 75 3a 85 7e f6 bc a9 7e 55 bb 4c 12 91 3d
       0.00093822886 -0.030089626 -0.0032576716 0.07083568
000010 cd 2c ec be 5e 05 fd 3e 04 f1 f7 3e 92 df 8f 3e
       -0.4612793 0.49418157 0.48426068 0.28100258
000020 f4 b1 93 3e
       0.28846705

conv1.bias f4 [3]
000000 07 e6 49 bc 29 77 85 3e 92 0d e6 3e
       -0.012322909 0.26067474 0.44932228

conv2.weight f4 [3, 3, 3, 3]
000000 5e 90 be 0e 25 bc 3c 27 5e c2 fe 15 9c 13 b5 11
       4.6977637e-30 2.6192234e-15 1.0289644e-25 2.856885e-28
000010 d2 cc 9f 2e 46 bd 2d 9b 83 77 29 35 19 67 98 ad
       7.266866e-11 -1.4371382e-22 6.313132e-07 -1.7326184e-11
000020 24 30 fa 2c 03 2a f2 3d 8f 16 11 3e 0f 51 80 3d
       7.110772e-12 0.11824419 0.14168762 0.06265461
000030 75 5f 7b bc a5 25 b3 bd 88 17 ee 3d 27 ee ba 3d
       -0.015342583 -0.087474145 0.11625582 0.09127455
000040 73 77 86 bd 79 4e f2 3d a2 a4 58 3d ed 40 01 3e
       -0.06565752 0.11831374 0.05289138 0.12622423
000050 aa 74 45 3d 5b d1 a2 bd ef 8c 65 bd f1 37 02 3e
       0.048206963 -0.07950088 -0.056042608 0.12716652
000060 d6 b5 f8 b9 56 1a 42 be 94 0f 30 3d a5 4a d0 91
       -0.00047437724 -0.18955359 0.042983606 -3.2862617e-28
000070 09 42 68 b2 4e c8 b3 b3 11 f7 96 b5 30 60 b3 31
       -1.3519192e-08 -8.371772e-08 -1.1247777e-06 5.220521e-09
000080 60 eb 13 ad 45 d5 a9 92 6b fb bb 32 fd 47 7a b3
       -8.408246e-12 -1.0717974e-27 2.1883997e-08 -5.8273134e-08
000090 47 8b c0 3d 6c 8f 4a 3e 29 36 1e bd 32 89 23 3e
       0.09401565 0.19781274 -0.03862587 0.15970305
0000a0 de da cf bd 9a 04 85 bd 50 a3 b1 3d 80 9b 38 3e
       -0.101491675 -0.06495018 0.086737275 0.18028069
0000b0 d0 c2 1f be 73 6c 31 3e 5d e2 d5 3c 27 8e 9b bc
       -0.15601659 0.17326526 0.026108915 -0.018988682
0000c0 e7 4f 97 3d ba 4a 0f 3d 69 e5 a4 3d 85 61 2c bd
       0.07388287 0.034983374 0.08051569 -0.04208519
0000d0 a0 a1 da 3d 4c 3a b1 bc c2 a6 6e 92 58 01 b3 91
       0.10675359 -0.021634243 -7.5305103e-28 -2.8242049e-28
0000e0 97 f4 59 11 31 7d 17 9b 86 c8 da a6 8e d4 02 31
       1.7193652e-28 -1.2530879e-22 -1.5181141e-15 1.9038313e-09
0000f0 56 b7 bc 91 40 bc cf 92 9a 72 03 b5 3a 7d a9 3d
       -2.977416e-28 -1.3109944e-27 -4.896807e-07 0.08275838
000100 47 1e af 3d 7c b6 49 3d 2a 0d 18 3e 03 df 1b bc
       0.08550697 0.049246296 0.14848772 -0.009513619
000110 ec 8c 50 bc ab f3 35 3e 16 97 11 bc 85 74 0f 3e
       -0.012728911 0.17768733 -0.008886119 0.14009292
000120 98 19 36 be f8 f9 4a 3e d6 5b 0a be 61 4d 15 be
       -0.177832 0.19821918 -0.13511595 -0.14580299
000130 94 ef fd bd f9 9a 24 3c 21 19 44 3d 30 79 dd bd
       -0.123992115 0.010046714 0.047875527 -0.1081413
000140 69 2e 02 3e
       0.12713017

conv2.bias f4 [3]
000000 e8 a9 33 be f6 3e a2 3d 99 98 46 3e
       -0.17545283 0.07922165 0.19394149

conv3.weight f4 [3, 6, 5, 5]
000000 f4 f2 d3 91 87 f4 02 12 4e 2a 89 8f 7b 26 25 11
       -3.3439662e-28 4.132217e-28 -1.3525538e-29 1.3028063e-28
000010 6a 5c 69 91 23 22 3e 14 56 3c e4 11 7f 5c 21 10
       -1.8408936e-28 9.599281e-27 3.6009242e-28 3.1822908e-29
000020 06 06 a9 8f 10 e5 8d 0f 65 05 2a 91 ca 10 ad 10
       -1.6667007e-29 1.3991905e-29 -1.3412298e-28 6.8262336e-29
000030 2c 2d 25 11 28 b4 2e 90 ae c3 cd 0f 97 2a 71 10
       1.3030125e-28 -3.4454237e-29 2.0289934e-29 4.756168e-29
000040 16 a6 9c 12 34 c9 e6 11 e4 c1 db 92 a6 b6 a7 10
       9.885927e-28 3.6411603e-28 -1.3868641e-27 6.61513e-29
000050 8f 05 20 91 82 0f 2f 13 5c 2c d5 12 d7 ab bb 91
       -1.2623487e-28 2.2095751e-27 1.3453125e-27 -2.9609302e-28
000060 14 8b 72 91 8f d5 81 3d c3 52 f8 3c 07 b7 7a bc
       -1.9133291e-28 0.06339561 0.030312901 -0.015302426
000070 13 e8 0d bc 68 0c 6d bd 12 e1 98 3d 2e fd 18 3d
       -0.008661288 -0.05787316 0.07464804 0.037350826
000080 74 83 f2 bb c9 58 5c bd e7 3c cd 3c 94 b6 93 3d
       -0.0074009243 -0.05379561 0.025053455 0.072125584
000090 14 d8 8a 3d 35 56 ad bb 95 91 b4 3d 3c 98 72 bd
       0.06779495 -0.0052898177 0.0881683 -0.059227213
0000a0 43 b0 61 3d 4d 55 c0 bc b6 d2 93 bc b5 1d 50 bb
       0.055099737 -0.023478175 -0.01804481 -0.0031755988
0000b0 a0 33 51 bd 54 8f 66 3c b2 28 26 bd 82 45 67 bd
       -0.051074624 0.014072258 -0.040566154 -0.056462772
0000c0 6d b9 81 bc 34 f7 a4 bb df 42 31 3d 60 1b a2 bd
       -0.015835488 -0.0050343517 0.043276664 -0.079153776
0000d0 1a 3c 06 bd c6 59 2d bc d4 97 f4 bc c0 66 e2 3c
       -0.03277216 -0.010580486 -0.029857554 0.027636886
0000e0 6e 5d 9f 3d 8c 6d 32 3d 20 8a 0d bd c4 24 01 3d
       0.07781492 0.043561503 -0.034555554 0.031529203
0000f0 79 e5 24 bd e4 2e a1 3c 82 3f 9e 3d 1a f1 a9 3b
       -0.040257905 0.01967568 0.07726957 0.0051862122
000100 b7 56 7f 3d 78 9d 44 3d 47 29 70 3c 87 c9 11 3b
       0.062338557 0.048001736 0.014658279 0.0022245364
000110 6f 80 93 3d 3c 81 7e 3d cd a9 8a bd de 4a 1c bd
       0.07202231 0.062134966 -0.06770668 -0.038157336
000120 48 a5 3a 3d 23 b2 80 bd 1f e6 08 bd d8 6d 89 bd
       0.04556778 -0.06283977 -0.033422586 -0.06710404
000130 2f 99 80 bb 54 eb aa bc e3 7c 71 3d b0 80 d7 bc
       -0.003924511 -0.020864166 0.058956992 -0.02630648
000140 22 8e 98 3d 27 35 24 bd 04 5f 82 3d 58 9d 00 3d
       0.07448985 -0.040089753 0.06365779 0.031400055
000150 25 48 91 bc 2c ed 69 3d 2d f4 3e bd 2a a3 59 bd
       -0.017734597 0.05711095 -0.046619583 -0.05313412
000160 d4 23 81 bd 25 5e 8b bd d6 2b e4 3a 3a c5 ed bc
       -0.06305662 -0.06805066 0.0017408084 -0.029024709
000170 98 1a b1 bc db d5 96 3d 9b 61 ec 3c b8 b4 87 3d
       -0.021619126 0.073650084 0.028855136 0.06626266
000180 cd fb 83 bd b6 8c bf bc e8 78 97 3d a7 e6 83 bd
       -0.064445116 -0.023382526 0.07396108 -0.06440478
000190 a7 94 59 bd 18 b0 95 3d 12 84 68 3d 1d 3a 54 3d
       -0.05312028 0.07308978 0.056766577 0.051813234
0001a0 de b7 0f 3d ac fd 31 3d b6 44 15 3d 36 a3 58 bd
       0.03508746 0.04345481 0.03644248 -0.052890025
0001b0 b7 58 18 3d ad f1 49 3d 46 e7 1f bd f6 ba bf 3c
       0.03719398 0.049302746 -0.03903892 0.02340458
0001c0 6d 59 ca bb be ad 12 bd 4a da 65 3d 2c 02 a3 bd
       -0.006175211 -0.035810225 0.05611638 -0.079593986
0001d0 4e 78 ed 3c af a7 0d 3d 55 66 21 3d 24 c6 01 bd
       0.02898803 0.034583744 0.039404232 -0.031683102
0001e0 ff 95 f9 bc a0 26 96 3d e3 3e 36 bd 59 1e 98 3d
       -0.030467032 0.07331586 -0.044493567 0.07427663
0001f0 51 1b 82 3d b9 e1 22 3d cd a8 65 bd 99 84 12 3c
       0.063528664 0.039766047 -0.056069184 0.008942747
000200 b3 d5 64 bd 45 38 0d bd 43 47 9c 3b 57 08 25 bb
       -0.055867862 -0.03447749 0.0047692372 -0.0025181973
000210 99 3e e5 3d 46 28 88 3c 09 10 a6 3d bf 9e 86 3d
       0.1119358 0.016620766 0.08108527 0.06573247
000220 77 a5 58 3d 67 71 c6 3d d8 e5 79 3d d0 38 38 bc
       0.052892175 0.096895985 0.06101021 -0.011244014
000230 1c a5 d6 3a c0 4a a7 bc 10 73 9d 3d 3a 80 76 3c
       0.0016376111 -0.020421386 0.07687962 0.01504522
000240 04 a7 aa 3c b5 65 fc 3b 1f ef f3 bc 5f ba af bc
       0.020831592 0.007702554 -0.029777108 -0.021451173
000250 5d 94 44 bb ac 05 5a bd 56 ae 2e 93 8c 32 2e 0f
       -0.0029995658 -0.053228065 -2.2047842e-27 8.588597e-30
000260 9e 1f 62 92 7b ff fe 10 cf 1f d4 10 14 3f 2c 10
       -7.1351997e-28 1.00578965e-28 8.3668265e-29 3.3969613e-29
000270 91 df da 14 5e b0 5b 9c fa 8c 07 92 07 45 bc 90
       2.2100556e-26 -7.268897e-22 -4.2772256e-28 -7.425928e-29
000280 58 66 fa 10 58 fa c6 18 c0 ab 09 12 73 e1 d5 91
       9.87653e-29 5.1434583e-24 4.3441276e-28 -3.3744418e-28
000290 cc df e7 0d a7 15 eb 10 e8 02 94 10 7c c9 60 10
       1.4290351e-30 9.272452e-29 5.8380185e-29 4.433143e-29
0002a0 6f c9 20 90 28 33 6b 13 fc ad d8 10 3f 8b ec 90
       -3.1709615e-29 2.9686392e-27 8.5465043e-29 -9.330013e-29
0002b0 c6 9a 89 9a bb 34 90 10 af 7c 33 12 a0 4e fc bc
       -5.691192e-23 5.687923e-29 5.6636125e-28 -0.03079921
0002c0 cf 4d 59 bc 7a c5 70 bd 10 7a 1a bd 78 a6 8d bd
       -0.01326318 -0.05878208 -0.037714064 -0.06916517
0002d0 35 16 42 3b 4a 5f 92 bd f1 c6 64 3d 35 3a 8f 3c
       0.0029615287 -0.07147081 0.055853788 0.01748381
0002e0 e7 fd a2 bc 12 95 91 3d 6c 95 b5 3c 90 a5 be 3c
       -0.01989646 0.07108511 0.022165976 0.023272306
0002f0 de 08 4d 3d 47 67 ab ba 1f 01 1c 3d 0d a5 89 3d
       0.050057285 -0.0013077044 0.038087007 0.06720934
000300 63 55 02 3d 3c 35 9d 3d 2f 33 06 3d 63 de af bb
       0.031819712 0.07676169 0.032763656 -0.0053670867
000310 4b c1 de 3c 38 ec 7e 3c 0d 3e d2 3c 1a e4 42 bc
       0.027191779 0.015559249 0.025664354 -0.011895204
000320 7d d0 e8 3c b9 e0 7f 3d d3 a8 58 bd 6c d6 4f bd
       0.028419727 0.06247017 -0.05289538 -0.050741598
000330 64 3f ae bd c9 0c 86 bb 44 39 1e bb 7b 2e 5b 3c
       -0.085081846 -0.0040908796 -0.002414302 0.013377781
000340 8f 8f 7d 3d 4e 29 9f bd cf 65 a5 bc 58 ae a5 bd
       0.061904486 -0.0777155 -0.020190148 -0.08089894
000350 a1 0f b2 bc c7 39 91 3d a3 a3 32 3d f7 52 13 3d
       -0.021735968 0.07091098 0.043613087 0.035967793
000360 6e a3 91 3d a2 34 51 bc df fe 5c 3d d7 a4 5c bc
       0.0711125 -0.012768896 0.053954 -0.013467035
000370 bf 51 a0 bd 28 98 02 3c 44 67 32 3d 31 be 02 3d
       -0.07828092 0.007970847 0.043555513 0.031919662
000380 12 4c 80 3d 5a 7e 1a bd b3 d8 87 3c 12 b2 34 3d
       0.06264509 -0.037718154 0.016582822 0.044115134
000390 a5 2a 29 3d d0 86 95 bd bb fe 6b 3d eb 35 90 bd
       0.041300435 -0.07301104 0.057615977 -0.07041534
0003a0 3f b1 9b bd be 1d 80 bc 31 63 38 3d 9c 15 f3 bc
       -0.076021664 -0.015639182 0.04501647 -0.02967339
0003b0 8b 9b 96 bc e9 1c 3b 3d 53 b3 14 3d 3d c3 b9 bc
       -0.018384716 0.045681868 0.03630383 -0.022676105
0003c0 b9 6e 7b 3d f7 a7 45 3d 71 da 76 bd 56 95 16 bd
       0.06138489 0.048255887 -0.060266916 -0.03676351
0003d0 07 ef 34 3d e5 90 79 3d 80 a4 fd bc 35 09 cc bc
       0.044173267 0.060929198 -0.030962229 -0.024906734
0003e0 8a 59 25 bc c5 e5 28 bc 6a 04 77 bd 98 ee 74 3d
       -0.010092149 -0.010308688 -0.060306944 0.059797853
0003f0 95 f9 3a bd 65 ad 0e 3b ac 63 80 bd 5c 5d d0 bb
       -0.045648176 0.0021770832 -0.06269011 -0.0063587856

conv3.bias f4 [3]
000000 f4 0b 64 3c 4a ed c2 b9 b9 f6 82 3d
       0.0139188655 -0.00037179358 0.06394715

conv4.weight f4 [3, 6, 7, 7]
000000 68 4d 70 3d 17 00 88 3d 8c 09 6c 3c e0 39 ae 3c
       0.05866757 0.06640642 0.014406573 0.021267831
000010 c6 0f 96 3d 77 82 2c 3d 55 48 59 3d e9 40 ac bb
       0.07327227 0.04211661 0.053047497 -0.0052567613
000020 10 19 63 3d 65 dc 89 3d 99 76 30 bc 6e 8b 21 3d
       0.055443823 0.0673149 -0.010770463 0.03943961
000030 e8 45 58 3d 0d fa ba 3d c2 d9 4b 3d d2 00 a6 3c
       0.052801043 0.09129725 0.049768217 0.020264063
000040 0f d4 44 bc 17 3e 8d bc 42 31 8b 3c ad 52 8b 3c
       -0.012013449 -0.01724152 0.016991261 0.017007196
000050 32 05 a2 3c 24 76 9a 3c d7 70 a0 bc 76 c1 c7 bc
       0.019777868 0.018855162 -0.019585056 -0.024384242
000060 2e bc de bc 77 82 f7 3c 82 9f c5 3c b4 8f 23 3d
       -0.02718934 0.030213578 0.02412391 0.039931968
000070 ce ec 3c 3c 8a d4 13 bd 6c f0 ce bc 43 cf 97 ba
       0.011531068 -0.036091365 -0.025261126 -0.0011582155
000080 97 20 99 3d 82 4a 8f 3c 2a 9d 3f 3c 0c 47 f2 bc
       0.07476919 0.017491583 0.011695186 -0.029574893
000090 da 5f 63 3d 85 77 80 bc 43 99 31 3d d3 23 90 bc
       0.055511333 -0.015681991 0.043359052 -0.017595207
0000a0 ac 7f 04 bd 7b 54 65 3d ed 62 14 bc f2 12 d4 3b
       -0.03234832 0.05598877 -0.009056789 0.006471985
0000b0 f4 22 ee 3c 02 79 98 3c 80 a3 f7 3c b4 0c 20 3d
       0.029069401 0.018612389 0.03022933 0.039074615
0000c0 af 68 c2 bb 8b 36 1d bb 55 2e 56 3d 12 a8 80 3d
       -0.0059328894 -0.002398881 0.05229028 0.06282057
0000d0 20 f0 3a 3d af be 68 3d 7d 5c df bb ed 1d dc 3b
       0.045639157 0.056822475 -0.0068164454 0.0067174346
0000e0 f5 6e 10 3d 03 42 9c ba b3 63 37 3d 3d 02 22 3d
       0.035262067 -0.0011921528 0.044772815 0.039552916
0000f0 7c 17 fa bc 3b 66 93 3d 81 79 ed 3c 4c 34 10 3d
       -0.030528776 0.07197233 0.028988602 0.035206124
000100 9c 15 d7 3c 11 26 18 3c ce a9 0e 3d 9f fc bf bc
       0.026255421 0.0092864195 0.034829907 -0.023435889
000110 55 1c 48 3d dd da 14 39 08 f8 3c 3c 79 47 2b 3d
       0.048855145 0.00014195913 0.011533745 0.04181621
000120 d4 6f 03 ba 80 b5 4e 3d a8 81 8e 3d c2 a6 cd bc
       -0.0005013917 0.05046606 0.06958324 -0.02510393
000130 ce 9f 96 bc c0 ea 55 3b 82 d7 d3 bc fe b5 dd 3b
       -0.018386748 0.0032641143 -0.025859598 0.00676608
000140 68 c7 84 bc c0 6e 99 3d 87 eb 49 3d f4 4c 7d 3d
       -0.016208366 0.07491827 0.049296882 0.061840966
000150 f4 1c 8c 3c 58 be 49 bd d5 32 0a 3d e4 5b 0c bd
       0.01710365 -0.04925379 0.033739883 -0.03426732
000160 c9 5b 08 3d e8 52 26 bc a5 c5 e9 bc d9 a6 1d bc
       0.03329066 -0.010151602 -0.028536627 -0.009622299
000170 de 53 2b bb 2c 41 e9 bc dd b1 fa bc d7 ff c3 bc
       -0.0026142518 -0.02847346 -0.03060239 -0.023925705
000180 ad 68 8f 3d 2a e4 ac 3c 71 e0 6b bd 49 1f f4 bc
       0.07002387 0.02110489 -0.05758709 -0.029800074
000190 80 53 96 3d c5 6a 09 3d a7 50 12 3d 59 fa 28 bd
       0.07340145 0.03354909 0.035721447 -0.041254375
0001a0 6d c5 3e bd 4e 63 b1 bd 72 7b 53 bd 34 ea 97 3d
       -0.046575 -0.08661519 -0.0516314 0.074177176
0001b0 7e 7b 54 3c ad 55 90 3d 42 23 13 bd 92 17 7e bd
       0.012968896 0.07047591 -0.035922296 -0.062034197
0001c0 0f d5 14 bd 01 b5 08 bd c5 2a 98 3d f1 ae 1b 3d
       -0.036336 -0.033375744 0.07430033 0.038008634
0001d0 1f ff 05 3d 4c 27 8b 3d de a7 8c 3d 0e 4c 7f bd
       0.032714006 0.06794605 0.068679556 -0.06232839
0001e0 21 49 89 3d 54 1f 51 3d 49 08 eb 3d 32 22 b2 3c
       0.06703401 0.051055267 0.1147619 0.021744821
0001f0 55 2f 5b 3c 3e 83 85 bc f3 75 f4 bb e9 30 df 3c
       0.013377984 -0.016297933 -0.0074603497 0.027245002
000200 2e 84 87 3d fd 98 67 3d c7 5b 81 3d e2 49 14 3d
       0.06617008 0.056542385 0.06316333 0.036203273
000210 36 b4 33 bd d0 79 77 bd bb 17 1e bd d6 ca 54 3d
       -0.043873034 -0.060418904 -0.03859685 0.051951252
000220 46 eb 73 3d e7 59 99 3d 1b c3 16 ba ad d8 37 3d
       0.059550546 0.07487851 -0.0005751119 0.044884373
000230 25 31 81 bb 82 b0 8f bd 42 7d 98 3d 38 37 27 3d
       -0.003942626 -0.07016088 0.07445766 0.040824145
000240 9a b3 4b bc 88 81 52 bd 4b ff fd 3c 56 a1 85 bb
       -0.012432957 -0.051393062 0.031005522 -0.0040780706
000250 84 31 2d 3c ba 29 2b 3c e0 ed 66 3d a8 24 f3 3c
       0.0105708875 0.01044696 0.0563792 0.029680565
000260 6f 98 5c 3d 07 92 c5 3c d5 93 03 bc 28 8f 4f bd
       0.05385631 0.024117483 -0.008030851 -0.050673634
000270 a7 c8 16 bd e5 c3 11 bd 46 73 df bb e1 78 5c 3d
       -0.03681245 -0.03558721 -0.0068191616 0.053826217
000280 7b b8 5e 3d 5e e9 99 ba 80 1e 14 bc 16 40 8b bc
       0.054375153 -0.0011742522 -0.009040475 -0.016998332
000290 ad 28 63 3d c1 48 8e 3d 32 2f 2f bd a9 74 ae 3c
       0.055458713 0.069474705 -0.04276962 0.021295862
0002a0 bd 4d 11 bd 08 57 50 3d 6d d1 c8 3b 04 6e 0b 3d
       -0.035474528 0.05086425 0.006128481 0.034040466
0002b0 a8 ec 8b 3b fd 73 aa bb 3e 06 29 3d 7b 14 05 bd
       0.004270155 -0.005201815 0.04126572 -0.032490235
0002c0 e0 2e 92 3c e1 fe 86 bc dc 77 65 3d 18 8a 36 3d
       0.017844617 -0.016478958 0.05602251 0.04456529
0002d0 9e d2 13 bb 9d 0a 44 bd 74 32 59 3d 16 2a 70 3d
       -0.0022555958 -0.047861684 0.05302663 0.058633886
0002e0 25 1b d1 3c ff bb 57 3c 45 fe 1d bd 2b 71 44 3d
       0.025525639 0.01316738 -0.03857257 0.047959488
0002f0 74 71 10 bd eb 0d bd 3c 30 61 07 bd d6 8b 3b bd
       -0.035264447 0.023077926 -0.03305167 -0.045787655
000300 7b 79 eb 3c 29 4b 6c bb e4 df 5d 3b 35 fa 8f ba
       0.02874445 -0.003605554 0.0033855373 -0.0010984602
000310 07 a4 b3 3c 13 e8 a5 3c 72 83 ae 3c 30 43 67 bc
       0.0219288 0.020252263 0.021302912 -0.01411514
000320 9b 79 17 3d ed 1d b6 bb 8e 64 0b 3d 0e 6f 25 3d
       0.036981206 -0.0055577666 0.034031443 0.040389113
000330 4a 0c 33 bc c4 3e 99 3b 39 5a 86 3d 58 f9 ef 3a
       -0.010928223 0.0046766717 0.06560177 0.0018308563
000340 70 77 0f 3d fb 5a 84 bc b6 f5 21 bd 01 b0 5c 3d
       0.035026014 -0.016156664 -0.03954097 0.053878788
000350 b0 4b 97 bc 2d 6e 98 3d ec db cc 3c b3 d1 25 3d
       -0.018468708 0.07442889 0.02500721 0.040483188
000360 e8 c1 9f 3b cd 70 15 3d 47 f5 83 3d 89 4e 91 bb
       0.0048754103 0.03648453 0.06443267 -0.004434411
000370 17 01 66 3d f3 6f 18 bc 26 f9 9d 3d 7e 91 07 bd
       0.056153383 -0.0093040345 0.07713537 -0.033097737
000380 26 13 65 3d da 63 c1 3c 94 f6 38 3d 42 3e cf 3b
       0.055926464 0.023607183 0.04515703 0.0063245604
000390 5f ef 9b 3d 1b 23 5e 3c 58 07 bf bb 78 45 64 3d
       0.07614016 0.0135581745 -0.005829733 0.055730313
0003a0 44 9b f0 bc 02 b9 51 3d 93 c3 04 3c 34 70 87 3d
       -0.029370911 0.051201828 0.008103269 0.06613198
0003b0 68 9c 40 3d 31 2e 18 bb c6 ae 83 3c d5 8c 3a bd
       0.04702416 -0.0023220892 0.01607455 -0.045544464
0003c0 63 80 b7 3c 69 6c 87 3d 63 15 c2 3b 19 9b a7 3c
       0.022400087 0.066124745 0.0059229597 0.020459699
0003d0 38 df 26 3d 34 10 3e bc 9e 39 36 3d 16 81 67 3d
       0.04074022 -0.011600543 0.04448854 0.05651959
0003e0 da 5e af 3c 4d f4 f1 bc fe 1b 8f bb 16 ec 47 3d
       0.021407533 -0.029535437 -0.0043673506 0.048809133
0003f0 4e 6b 17 3d 9a 51 37 3d e6 17 d6 bc 6a d3 24 3c
       0.036967568 0.044755556 -0.026134443 0.010060171

conv4.bias f4 [3]
000000 04 bf cb 3b 4b 01 3f 3d 96 03 04 bd
       0.006217839 0.046632092 -0.032229982

conv5.weight f4 [3, 12, 3, 3]
000000 cf 60 5b 20 b7 51 d5 12 a1 22 85 90 f5 cd f9 8e
       1.8582053e-19 1.3462334e-27 -5.2512604e-29 -6.158157e-30
000010 4e c8 ca 94 47 02 9f 9d 64 c4 b0 10 d0 52 b5 10
       -2.0475794e-26 -4.2089304e-21 6.972235e-29 7.1519505e-29
000020 6c 54 96 8f d2 04 5d bb 7c 68 95 3d 60 7b 1d 3d
       -1.482366e-29 -0.0033724797 0.072953194 0.038447738
000030 92 d0 04 3e bd 77 83 3d 46 cb 16 bc b6 c3 5a bd
       0.12970188 0.06419323 -0.009203738 -0.0534093
000040 4a 97 3c 3b 3e 4f 43 bd fe f1 a0 3d 18 76 02 3e
       0.0028776699 -0.047682993 0.07858656 0.12740362
000050 b6 81 1c bd da 6c 11 3d bb 00 c3 bc bb d2 35 bd
       -0.03820964 0.0355042 -0.02380406 -0.04439042
000060 50 75 93 bd 0c b1 4e 3d 20 89 47 3d 6f 01 b6 3d
       -0.0720011 0.050461814 0.048714757 0.08886992
000070 a9 3b 99 3d cb 1d 77 3d 1b e6 99 bd 06 b2 da bc
       0.074820824 0.060331147 -0.07514592 -0.026696216
000080 ba be e0 3d 3e 17 b7 3c b7 38 93 bd a6 28 8d 3d
       0.10973878 0.02234995 -0.07188552 0.06892519
000090 a0 d0 89 3d 35 70 09 3d b4 25 23 bd de b9 64 3d
       0.06729245 0.033554275 -0.03983088 0.05584132
0000a0 e7 c1 53 bd 98 8e f9 3c 49 9f 96 3d 43 26 ba 3c
       -0.05169859 0.030463502 0.073546 0.022723323
0000b0 3f bb 9d 3d 52 2a fc 3b 0a de 29 3e 4e e1 4e 3c
       0.0770173 0.0076954747 0.16588607 0.012626959
0000c0 8d 3d a2 3d 54 f3 3c 3e de a3 db 3d 07 17 b0 3d
       0.07921896 0.18452197 0.107246146 0.08598142
0000d0 1c 71 d2 3d 46 ee 29 bb 55 67 9f 3c a8 c3 58 3d
       0.1027548 -0.0025929376 0.019458452 0.052920967
0000e0 f8 46 a1 bd c9 68 21 3d 22 7c 84 3d c3 ce f0 3c
       -0.07874864 0.03940657 0.06468989 0.029395467
0000f0 eb 6f 74 3d f2 5c a2 3c c9 ca 8a 3d f9 2f 59 bb
       0.059677046 0.01981971 0.067769594 -0.0033140166
000100 ba f4 a2 bd 5d 60 51 bc 8c 4f eb 3d a3 d3 bc 3c
       -0.07956834 -0.012779322 0.11489782 0.023050135
000110 88 72 65 3c b1 74 52 3d a5 5b e3 bc dc 67 b8 3d
       0.014004357 0.051380817 -0.02775366 0.090041846
000120 3f 62 94 bd 5d bd 17 3d 9f 72 88 bc 51 9c d8 3c
       -0.072453015 0.037045825 -0.016656218 0.026441725
000130 22 9d bc 3b 71 ec bc 3c f8 6f 0e 3c d8 b9 be 3d
       0.0057560364 0.023061963 0.008693688 0.09312791
000140 6b 36 77 3d 1b f3 26 3d 89 46 8d bd 3d b5 45 3d
       0.06035463 0.040759187 -0.06898219 0.048268545
000150 86 3d a3 3c 87 3a 28 3d bf cf cd 3d cc 3c e5 3c
       0.019926798 0.04107144 0.1004939 0.027983092
000160 f0 49 0b bd 9a 08 ab 3d 28 3a 1d bd 78 58 f9 3c
       -0.03400606 0.0835125 -0.03838554 0.030437693
000170 a4 eb 33 bd d5 8f 97 3d 89 5a c5 3d 7d 8f c8 3c
       -0.043925896 0.07400481 0.09636409 0.024482483
000180 99 a5 b7 bd f4 99 bd 3d 8a ac bb 3d 7e c5 79 bd
       -0.08967132 0.0925788 0.091637686 -0.06097936
000190 a8 24 dc 3d 27 fc 03 3d 32 71 6e 3c df 65 7a bd
       0.10749179 0.032222893 0.014553355 -0.061132308
0001a0 79 5a 4a bb ea ab 6f bb ea d0 94 bd 93 27 60 bd
       -0.003087668 -0.0036570975 -0.0726641 -0.05472524
0001b0 3f b7 be 90 bc 0d 7e 91 39 ce a4 92 7b 83 18 94
       -7.522412e-29 -2.0041299e-28 -1.0400693e-27 -7.699969e-27
0001c0 ba e3 5c 93 f4 65 8a 1c a5 f6 15 13 d6 82 09 92
       -2.7880182e-27 9.158428e-22 1.892805e-27 -4.3390845e-28
0001d0 db b9 d4 91 06 15 5d 3d 39 d6 f5 3d c1 fe 59 bd
       -3.3562245e-28 0.053975128 0.1200375 -0.053221468
0001e0 27 29 f9 bc 09 2b 0d 3e ad dd 80 3c af b5 84 3d
       -0.03041513 0.13785948 0.015730703 0.06479966
0001f0 44 70 a8 3d 5e 54 e1 bc de 58 6c bd 71 c1 3a 3d
       0.08224538 -0.02750605 -0.057701938 0.045594636
000200 bb e8 ab 3c 66 69 fb 3c 9a a6 99 3d c1 55 10 3c
       0.020984998 0.030689906 0.0750248 0.008809508
000210 61 09 21 bd 6d 8f ed 3d 18 76 6f 3b 69 c0 37 bc
       -0.039315585 0.11599622 0.0036538895 -0.011215308
000220 eb 2a 1b 3c d4 80 d2 3d 5e 34 8f 3d e7 4c 54 bd
       0.009470682 0.10278478 0.0699241 -0.051831152
000230 ea 47 10 3d 3d ed 9d bd 1d e7 82 bd fd 83 cc 3d
       0.035224833 -0.07711265 -0.063917376 0.09986112
000240 45 ea aa 3d bc 37 50 bc 5a 89 80 bc 64 88 de 3d
       0.083454646 -0.012708601 -0.015690494 0.10865858
000250 29 37 d4 3a 5e f2 1f bb b9 85 ac 3d 37 3a f8 bc
       0.0016190755 -0.0024405937 0.08423943 -0.030301197
000260 7f b5 93 3d e1 c5 c7 3d 6e c8 18 3e e1 90 77 3d
       0.07212352 0.09754539 0.14920208 0.0604409
000270 00 59 1e 3c 68 0c 03 3e 0b cb 3e 3e 52 08 b8 3c
       0.009664774 0.12797701 0.18632142 0.022464905
000280 15 77 66 3d 01 f0 38 3d ce a6 63 3c 75 76 f0 bc
       0.05626591 0.04515076 0.01389475 -0.02935336
000290 34 24 06 bd df 15 c6 3d 3c 7f 8e bd e9 73 f8 3a
       -0.03274937 0.0967214 -0.06957862 0.0018955442
0002a0 57 e1 ae 3b dc 81 0b 3c cd 32 ac 3d f8 1d 9c bd
       0.005336921 0.008514848 0.08408127 -0.076229036
0002b0 d1 fe d1 3c ac ae aa bc 78 76 33 3d 68 0d 68 3d
       0.025634201 -0.020835243 0.043814152 0.05665341
0002c0 ab ff 42 3d 52 b7 97 bb ef 61 63 bd b2 87 a5 bc
       0.047607105 -0.004630008 -0.05551332 -0.020206306
0002d0 2d 67 3c 3d b5 95 7b bd af c0 71 3d a8 fb 5d 3d
       0.045996834 -0.06142207 0.059021648 0.054195076
0002e0 17 e6 40 bd a5 d0 d6 3b 46 8d f5 3c ad 42 a3 3d
       -0.04709443 0.006555634 0.029974591 0.07971702
0002f0 ef 1c 90 3d 5d 2a 3b 3d ee 49 4c 3b 1d 12 22 3c
       0.07036769 0.045694698 0.0031171995 0.009892014
000300 fa 69 b7 3d 30 56 53 3d 90 6c 48 bd 8f 9b d8 3c
       0.0895576 0.051595867 -0.04893166 0.026441364
000310 20 df 3b 3d 28 35 16 3d 17 53 be 3d d5 ef d1 bc
       0.045867085 0.036671788 0.09293192 -0.025627056
000320 5f 60 99 3d be 0a f4 38 4a c5 cd 3c 1d 0e 8d bd
       0.074890845 0.000116368275 0.025118489 -0.068874575
000330 12 cc 35 3c 30 6e 92 bd c7 23 5b 3d c4 ac 94 3d
       0.011096017 -0.07149923 0.053500917 0.07259515
000340 05 63 3b 3d 6c cd c4 3c a8 b2 07 3d 92 8a 94 bd
       0.04574873 0.024023734 0.033129364 -0.07252993
000350 b5 40 92 3d f6 d4 b0 3c 9f d0 24 3d db 29 12 bd
       0.07141248 0.021585923 0.04023802 -0.035684448
000360 9d ca f6 1b ba 80 11 92 04 2f 69 96 2d 12 36 13
       4.0828222e-22 -4.59126e-28 -1.8836426e-25 2.298059e-27
000370 54 a8 b4 92 8b 76 85 14 ce dd 95 0e 73 1d 6b 1b
       -1.1401093e-27 1.3476325e-26 3.6944926e-30 1.944826e-22
000380 79 2f 0c 19 c1 1c 82 bc e0 db ac bc c0 db e0 bc
       7.247417e-24 -0.015882852 -0.021100938 -0.027448535
000390 2d 31 70 3d 73 e8 a5 3c 3e 90 cd 3d ff fd e3 3d
       0.058640648 0.020252442 0.10037278 0.1113243
0003a0 79 dd 15 bd f7 6a 20 3c a4 19 45 bd dd a6 6a bd
       -0.036588166 0.009791127 -0.048120156 -0.05728804
0003b0 8d 17 ac 3d 49 a7 6a 3d 87 aa 7b 3d 0d 72 38 3c
       0.084029295 0.05728844 0.061441924 0.011257661
0003c0 c7 9e b9 3d b7 3e e8 3d 2a 96 7d bd af 2a 80 bd
       0.090634875 0.11340087 -0.061910786 -0.06258141
0003d0 9a b5 a6 3d eb 4b 77 3d 49 5d 0e 3c 8c 54 36 3d
       0.081401065 0.060375135 0.008689233 0.044514224
0003e0 d9 ab 9c 3d 18 33 3b bd 7f 80 9e 3c 47 ec 94 3d
       0.07649965 -0.045703024 0.019348381 0.07271629
0003f0 89 05 b6 3d 80 a9 6d bc 47 84 fe 3c 61 89 f3 3d
       0.088877745 -0.014505744 0.031068934 0.11891437

conv5.bias f4 [3]
000000 bf 3e 53 bb 1d 2f 6a 3d 9c 15 ca bc
       -0.0032233445 0.057173837 -0.024668507
